example/assets/mfcc_model.tflite (tflite, 180612 bytes, 8 tensors)

dense_3/bias f4 [2]
0	0x3c55d49f	0.013051181
1	0xbc55d49f	-0.013051181

dense_2/bias f4 [100]
0	0xbc479ad2	-0.012182908
1	0x3b0b0fa1	0.0021219032
2	0x3a0943fc	0.0005236266
3	0x3bb5fdb2	0.0055539245
4	0xbb5b45cd	-0.0033458353
5	0x3bb0b464	0.005392598
6	0xbbf4f63e	-0.0074756434
7	0x3ada8eda	0.0016674653
8	0xbbf9c6a3	-0.0076225563
9	0xbc31d316	-0.010853549
10	0xbc6f1165	-0.0145915495
11	0xbbf2e86d	-0.007412961
12	0xbbba1994	-0.0056793187
13	0xbc0a9c85	-0.008460169
14	0xbbf0adf1	-0.007344954
15	0xb9b7a3d7	-0.0003502655
16	0xbbfaeb56	-0.0076574488
17	0xbc7d3323	-0.0154540865
18	0xbc0698d9	-0.008215153
19	0xbad34716	-0.0016119208
20	0x3bc3a9f9	0.00597119
21	0x39e18d48	0.00043020607
22	0x3c0e184a	0.008672783
23	0xbadbf093	-0.0016780071
24	0xbc08443f	-0.008317052
25	0x3b805952	0.003916898
26	0xbba3c449	-0.0049977642
27	0xbb87944d	-0.004137552
28	0xbbedd96f	-0.007258586
29	0xbb8adb89	-0.0042375964
30	0xbc0f6697	-0.008752487
31	0xbbb2a733	-0.0054520606
32	0xbc284f2a	-0.01027278
33	0x3bd8e110	0.0066186264
34	0xbc2971ef	-0.010342105
35	0x3c3c7b9b	0.011504079
36	0x3b6b89ec	0.0035940362
37	0x3b50d030	0.003186237
38	0xbbb0305f	-0.00537686
39	0x3beaa860	0.007161185
40	0xbb39e0d6	-0.0028362772
41	0xbc333046	-0.010936802
42	0xbb50767a	-0.0031808899
43	0x3ab0cf23	0.0013489466
44	0xbc454029	-0.012039223
45	0x3adc13a8	0.0016790526
46	0xbbc3fd32	-0.005981111
47	0xbaaa59a6	-0.0012996688
48	0xbb670c45	-0.0035255116
49	0xbbb01faa	-0.0053748684
50	0x3bad39aa	0.005286415
51	0xbb67661d	-0.0035308667
52	0x3b2aec67	0.0026080848
53	0xbba313a3	-0.004976706
54	0xba802b36	-0.0009778503
55	0xbc4f9b79	-0.012671345
56	0x3c21adb5	0.009868075
57	0x3c6d6ee3	0.0144917695
58	0xbc0f77e2	-0.00875661
59	0x3a3fdd7a	0.00073190744
60	0x3b15726a	0.0022803792
61	0xbb25b007	-0.0025281922
62	0xbc07ca5c	-0.008287992
63	0x3c162251	0.009163455
64	0xbc04aafc	-0.0080974065
65	0xbc0dc1a6	-0.008652126
66	0x3b275213	0.0025531098
67	0x3ab0d3a6	0.001349081
68	0xba5d24bc	-0.0008435955
69	0xbc4c97d9	-0.012487375
70	0x3bfd7b8e	0.007735676
71	0xbbef7b86	-0.0073084263
72	0xbc54159c	-0.012944605
73	0xbb5f38ea	-0.0034061023
74	0xbbfaf9ed	-0.007659188
75	0xb95e78c4	-0.00021216559
76	0x3a15e76a	0.00057183823
77	0xbc80ae26	-0.01570804
78	0xbc126ace	-0.008936597
79	0xbb82f7bc	-0.0039968174
80	0xaf4ee5c9	-1.8817227e-10
81	0x3ad4a973	0.0016224816
82	0x3baf228c	0.0053446945
83	0x3c01549c	0.007893708
84	0xbb1cc0b2	-0.0023918566
85	0xbc2e6c98	-0.010646008
86	0x3aa75422	0.0012766162
87	0xbb1f5267	-0.002431059
88	0xba6c037c	-0.0009003205
89	0x3aa91fe6	0.0012903183
90	0x3b9ed2fc	0.0048469286
91	0xba477796	-0.0007609067
92	0xb8d0e410	-9.960693e-05
93	0x3a838fbe	0.0010037345
94	0xba004fd4	-0.0004894708
95	0xbbf641da	-0.0075151743
96	0x3bb15292	0.0054114545
97	0x3ae5dc88	0.0017537037
98	0x3b8f2aaa	0.0043690996
99	0xbbfaf92d	-0.0076590986

dense_1/bias f4 [200]
0	0xbbfa1ac0	-0.0076325834
1	0xbac0af7d	-0.0014700737
2	0x3b18f6dd	0.0023340501
3	0x3bd96719	0.0066346047
4	0x3c37a664	0.011209104
5	0xbc0d23f6	-0.008614531
6	0x9111a216	-1.148843e-28
7	0xbb9f99ad	-0.0048706145
8	0x3b71caeb	0.003689463
9	0xbbe545cd	-0.0069968463
10	0xbc1da1d1	-0.0096211
11	0xbbd12580	-0.006382644
12	0x3ade07a7	0.0016939536
13	0x00000000	0.0
14	0x3b3f2bda	0.0029170425
15	0xbc1da86b	-0.0096226735
16	0x00000000	0.0
17	0xbc3c8318	-0.011505865
18	0x00000000	0.0
19	0xbc457819	-0.012052559
20	0xbc02801a	-0.007965112
21	0x3b723010	0.0036954917
22	0xba816ce4	-0.0009874371
23	0x00000000	0.0
24	0xbc5c1194	-0.013431925
25	0xbb9e6f81	-0.0048350696
26	0xbb92bd09	-0.004478101
27	0x3ad7b6a5	0.001645763
28	0x3bcfe5cf	0.006344534
29	0x3bea3fe5	0.00714873
30	0x3c12485f	0.008928387
31	0x27d3aee8	5.87539e-15
32	0x3a31503d	0.00067639706
33	0x3be4c5a6	0.0069815693
34	0x3bf90b61	0.0076002334
35	0x3a91eef3	0.0011133834
36	0xbb7bfca8	-0.0038450155
37	0xbbe4e486	-0.00698525
38	0xbc3ed269	-0.011646845
39	0x00000000	0.0
40	0xbc024ea3	-0.007953319
41	0xbacf33e4	-0.0015808311
42	0x3afea26d	0.0019427069
43	0xbba51eb1	-0.005039059
44	0x3bb7d5ba	0.005610195
45	0x00000000	0.0
46	0xbc3aa171	-0.01139103
47	0xbbdda735	-0.0067643174
48	0xbad3b84c	-0.0016152947
49	0x3bce682c	0.0062990393
50	0x3b83d6d2	0.0040234113
51	0x3ba3a616	0.004994164
52	0xbc27b2fd	-0.010235545
53	0x00000000	0.0
54	0x3c660ff0	0.014041886
55	0xbb0f62bc	-0.0021878919
56	0x3b3ef254	0.0029136138
57	0xbc01ec3e	-0.00792986
58	0xbb96906e	-0.004594854
59	0xbb5bdb88	-0.00335476
60	0xbc1a22f7	-0.00940775
61	0xbbb40de2	-0.005494819
62	0xbc13da49	-0.009024211
63	0xbad051fa	-0.0015893572
64	0x3ab454ce	0.0013758184
65	0xbb9ca934	-0.004780913
66	0xbc1a4de8	-0.009417988
67	0xbbce86bc	-0.0063026827
68	0x3babc6f0	0.005242221
69	0xbb9cae2e	-0.004781506
70	0xbb8b7594	-0.0042559598
71	0x3bd115dd	0.00638078
72	0xbacdf0e2	-0.0015712047
73	0x3be8080c	0.0070810374
74	0xbb785e68	-0.0037898067
75	0xbbdce518	-0.0067411773
76	0x3bfa91c1	0.0076467698
77	0xbba65fcd	-0.0050773383
78	0xbb697fc0	-0.0035629123
79	0xbb0a8fb3	-0.002114278
80	0xbc49aa67	-0.0123086935
81	0x3c0c11a5	0.008549129
82	0xbbf9bc91	-0.007621356
83	0xba8ffdeb	-0.0010985708
84	0xbabf0b76	-0.0014575559
85	0xbbd85641	-0.006602079
86	0xbb8e18ba	-0.0043364437
87	0xbba7e606	-0.0051238565
88	0xbc39c3aa	-0.011338154
89	0x3b8c54ec	0.0042825844
90	0x3afb41dd	0.0019169409
91	0x3aa21a3d	0.0012367439
92	0xbb8489b6	-0.0040447367
93	0xbade8993	-0.0016978256
94	0xbc3ccd4e	-0.011523558
95	0xbc023199	-0.007946395
96	0xbc00bff1	-0.007858262
97	0x3bbe00fc	0.005798457
98	0xbbf766e6	-0.0075501082
99	0xbb8973e9	-0.004194726
100	0x00000000	0.0
101	0x3bbfbdff	0.0058515067
102	0xb90dc2da	-0.00013519396
103	0x3be8dd39	0.00710645
104	0x3a24856e	0.0006275986
105	0x3b9e1518	0.004824292
106	0x3ba51dc4	0.0050389487
107	0xb7f5f874	-2.9321971e-05
108	0x3c11104c	0.008853983
109	0xbc25f4ee	-0.010129197
110	0xbc2caab6	-0.0105387475
111	0xbb9a9cc2	-0.004718394
112	0xba3a47d2	-0.0007106039
113	0xbb8ad31a	-0.004236591
114	0x3a69f5ca	0.000892487
115	0x3b71126c	0.0036784662
116	0x00000000	0.0
117	0x3aec4801	0.001802683
118	0xbc3b28d1	-0.011423306
119	0xbc14755a	-0.009061182
120	0xa22678ce	-2.2561149e-18
121	0x3c156c80	0.009120107
122	0x3b653254	0.0034972625
123	0xbbe8b0b1	-0.0071011414
124	0x3c0747cd	0.008256865
125	0x3b470704	0.0030369172
126	0xbbe33518	-0.0069338195
127	0xbb5bf413	-0.0033562228
128	0x3b33510e	0.0027361545
129	0x3ba58bd3	0.0050520687
130	0x3a87554a	0.0010325101
131	0xbbfcaa09	-0.0077106995
132	0x3adb33e3	0.0016723837
133	0xbbbc9ad0	-0.00575576
134	0x3acfb410	0.001584651
135	0xba1c290c	-0.0005957044
136	0xbb135a6d	-0.0022484318
137	0x3baf62b5	0.005352343
138	0x3aabf9b7	0.0013120685
139	0xbbd5c643	-0.006523879
140	0xbbfaff7e	-0.0076598516
141	0x3c486bff	0.0122327795
142	0xbbbe85d2	-0.0058142925
143	0xbb9b6503	-0.004742266
144	0xbc28af0b	-0.01029564
145	0x3c3cd3b3	0.011525082
146	0xbb1b39b6	-0.0023685521
147	0xba84ed87	-0.001014159
148	0xbc17dc08	-0.009268768
149	0x2b46752c	7.050634e-13
150	0xbb885937	-0.004161026
151	0x3aeec02e	0.0018215233
152	0x00000000	0.0
153	0xbba51eb8	-0.0050390624
154	0x3c01dfa4	0.007926855
155	0x3bf3d87e	0.0074415794
156	0x3b37bc22	0.002803572
157	0xbc144f57	-0.009052119
158	0xbb1afd12	-0.0023649377
159	0xbba4763b	-0.005018977
160	0x3b2b20cd	0.002611208
161	0x3b6a6e90	0.0035771467
162	0x3bae23f4	0.0053143445
163	0x3be29964	0.0069152582
164	0x3ae420f6	0.0017404843
165	0x3b62a580	0.003458351
166	0xbc019098	-0.007908009
167	0x3b9fce93	0.0048769205
168	0xbbee7063	-0.007276581
169	0x3bd9b7b0	0.0066442117
170	0x39984d1e	0.00029049156
171	0xbb165463	-0.0022938482
172	0xbb028794	-0.0019917237
173	0x3b0347bb	0.0020031768
174	0x3b2c3964	0.0026279325
175	0xbbdc1274	-0.006716067
176	0x3b4043cf	0.0029337292
177	0x3b0f40c6	0.0021858676
178	0x3afe0a51	0.0019381737
179	0x3bbb2bb8	0.005711999
180	0xbbea2f5c	-0.007146759
181	0x3bb9a62b	0.0056655607
182	0xbc3267ea	-0.010889033
183	0xa1d96d8e	-1.4733491e-18
184	0xbb71607a	-0.0036831186
185	0xbc1e8ba2	-0.009676846
186	0xbc2748b2	-0.010210203
187	0x3af2efcd	0.0018534601
188	0xbbb63dae	-0.005561552
189	0x3babcf76	0.005243237
190	0xbc2c32fc	-0.0105102025
191	0xbae44b44	-0.001741745
192	0xbbdf666d	-0.00681763
193	0x3852b488	5.0236034e-05
194	0xbb7498fb	-0.0037322629
195	0xba740680	-0.000930883
196	0xbc324696	-0.010881087
197	0xbc18d114	-0.009327192
198	0x39ca2df6	0.00038562686
199	0xbbb7b739	-0.0056065586

dense/bias f4 [100]
0	0xbb28bee4	-0.0025748545
1	0xbb71e6d9	-0.0036911278
2	0xbc706976	-0.014673581
3	0x00000000	0.0
4	0x3b99baa2	0.004691438
5	0xbbb9771f	-0.0056599523
6	0x00000000	0.0
7	0xbad49844	-0.0016219695
8	0x3ba4aa08	0.005025152
9	0x3a0fce39	0.00054857467
10	0x3c16d327	0.009205616
11	0x3c0bb143	0.008526149
12	0x3b83cfaf	0.0040225605
13	0xbb28aff4	-0.0025739642
14	0x00000000	0.0
15	0xbbf808bd	-0.007569401
16	0xbb3bd7b4	-0.0028662505
17	0x00000000	0.0
18	0x3c082a18	0.008310817
19	0x3a89e888	0.001052157
20	0x3adf67af	0.001704445
21	0xbc03bd43	-0.008040729
22	0xba18e118	-0.00058318814
23	0x00000000	0.0
24	0x00000000	0.0
25	0x389f8c30	7.607823e-05
26	0xb9c79ee9	-0.00038074635
27	0x00000000	0.0
28	0xb9b8c910	-0.00035245018
29	0x3bf84811	0.0075769504
30	0x3ae073f2	0.0017124398
31	0xbbb60bc5	-0.0055556023
32	0x3be93157	0.0071164775
33	0x00000000	0.0
34	0xbc4993f3	-0.01230334
35	0xbb8f49c8	-0.004372809
36	0xbbe9b8f9	-0.007132646
37	0x00000000	0.0
38	0x00000000	0.0
39	0x3b294fd4	0.0025834935
40	0xbbb961f0	-0.005657427
41	0x00000000	0.0
42	0xba7228e4	-0.00092376606
43	0xb9ed8b11	-0.00045307775
44	0xbc0b5246	-0.008503502
45	0x00000000	0.0
46	0x00000000	0.0
47	0xbb8ede23	-0.004359977
48	0xbc26f012	-0.010189073
49	0xbc379eb8	-0.011207275
50	0x3be95bc2	0.007121534
51	0x3a7a1a9a	0.0009540707
52	0xbb718235	-0.003685129
53	0xbb0812be	-0.0020763124
54	0x00000000	0.0
55	0x00000000	0.0
56	0xbb9a8cb2	-0.004716479
57	0xbc00d4ea	-0.007863263
58	0x00000000	0.0
59	0xbc0e5a6d	-0.008688551
60	0xbb847a11	-0.0040428718
61	0x00000000	0.0
62	0xbc12ff2e	-0.008971972
63	0xba6806a4	-0.0008851087
64	0x00000000	0.0
65	0x00000000	0.0
66	0xbc61d416	-0.013783475
67	0x00000000	0.0
68	0xbb86bbd2	-0.0041117454
69	0xbc59948f	-0.013280048
70	0x00000000	0.0
71	0x3b3aeecf	0.0028523689
72	0xbbad0fc7	-0.005281422
73	0xbc3f83be	-0.011689125
74	0xbb60e678	-0.0034317058
75	0x00000000	0.0
76	0x00000000	0.0
77	0x00000000	0.0
78	0x3a08c467	0.00052172545
79	0x00000000	0.0
80	0x00000000	0.0
81	0x3b6b83b4	0.0035936655
82	0x00000000	0.0
83	0xbc6c6724	-0.0144288875
84	0x00000000	0.0
85	0xbbac36a8	-0.005255539
86	0xbbc72321	-0.0060771857
87	0xbaaf4b23	-0.0013373833
88	0x00000000	0.0
89	0xbb989ac8	-0.0046571232
90	0x00000000	0.0
91	0x00000000	0.0
92	0xbb9dae86	-0.0048120646
93	0x00000000	0.0
94	0xbbb584ed	-0.0055395276
95	0xbbdcb2b0	-0.0067351684
96	0x00000000	0.0
97	0x3b9ec5fc	0.004845379
98	0x00000000	0.0
99	0xbbdb4c53	-0.006692448

sequential/dense/MatMul f4 [100, 40]
0	0x3c827931	0.01592693
1	0x3e4e18b0	0.20126605
2	0xbd2c2dfb	-0.042036038
3	0x3dc79315	0.097448505
4	0x3bd833e9	0.006597985
5	0xbd555e20	-0.052091718
6	0x3d5a7d8b	0.053342383
7	0xbb4d869d	-0.0031360753
8	0xbe26183b	-0.1622018
9	0x3e53ae7e	0.20672032
10	0xbe3497da	-0.17636052
11	0x3d9730f4	0.07382384
12	0xbd13d922	-0.036095746
13	0x3dfee6aa	0.124463394
14	0xbe4a1ce2	-0.1973758
15	0xbddda9ff	-0.1082344
16	0x3d4f420a	0.05060009
17	0x3defbd99	0.11706085
18	0xbe2761c8	-0.16345894
19	0xbe006169	-0.12537159
20	0xbcbf5ab4	-0.02335868
21	0xbdde7d10	-0.108636975
22	0xbde17a47	-0.11009651
23	0x3d292e38	0.041303843
24	0xbd8663a4	-0.06561974
25	0x3d14b092	0.036301203
26	0x3b28c3c9	0.0025751463
27	0x3e0f74da	0.14009419
28	0xbe0cf7a5	-0.13766344
29	0xbe2884f0	-0.16456962
30	0xbdd9e8f3	-0.10640135
31	0x3e1ab86f	0.15109418
32	0xbdbda958	-0.092608154
33	0x3e48294c	0.19547004
34	0xbe11aacb	-0.14225309
35	0xbd8a81da	-0.067630485
36	0xbd1107e9	-0.035407934
37	0x3e129a43	0.14316659
38	0xbc06f073	-0.0082360385
39	0xbe1a160f	-0.15047477
40	0xbd877992	-0.066149846
41	0x3e15d930	0.14633632
42	0xbe3acda8	-0.18242514
43	0xbd0a339f	-0.033740636
44	0xbe0104a7	-0.12599431
45	0xbc97b6e3	-0.018519824
46	0x3db08456	0.08618991
47	0xbdf374d1	-0.11887515
48	0xbdb489dd	-0.08815358
49	0xbe20b1ea	-0.15692869
50	0x3e38e481	0.18055917
51	0xbda06ce3	-0.078332685
52	0x3e0cbbdb	0.13743536
53	0xbe2545a9	-0.16139854
54	0xbd86ddd0	-0.06585276
55	0x3e075a0f	0.13217948
56	0x3e0ffd14	0.14061385
57	0xbd31e58b	-0.0434318
58	0x3e00059d	0.12502141
59	0xbcc4b7d1	-0.024013432
60	0xbd91e9d4	-0.07124677
61	0xbe2134f2	-0.15742853
62	0x3e429d88	0.19005406
63	0x3ac7afb4	0.0015234859
64	0x3cf2a1c7	0.029618157
65	0x3e47cb55	0.19511159
66	0xbe3899bd	-0.18027397
67	0x3e1cbe2b	0.15306918
68	0xbd02b4a4	-0.031910554
69	0x3e0eb55c	0.1393637
70	0x3ddec006	0.10876469
71	0x3ddafd31	0.10692824
72	0x3e432445	0.19056804
73	0xbe3927f0	-0.18081641
74	0xbe4e384f	-0.20138668
75	0x3b85eadf	0.0040868367
76	0xbe1b2fed	-0.15155001
77	0x3d2b0aee	0.04175847
78	0x3d5b75bb	0.053579073
79	0xbe46f201	-0.19428255
80	0xbdd07f7d	-0.101805665
81	0x3e1bb2f3	0.15204982
82	0x3da4db3d	0.08049629
83	0xbcafa48d	-0.021440769
84	0x3e26897e	0.16263387
85	0xbdbc9651	-0.09208358
86	0x3c2d370f	0.010572209
87	0x3b30ee5d	0.0026997544
88	0xbe3a86f4	-0.18215543
89	0xbe447172	-0.19183901
90	0xbe35fe66	-0.17772827
91	0xbd807eeb	-0.06274208
92	0x3e26ae69	0.1627747
93	0x3d3b938a	0.045795
94	0x3e3924a5	0.18080385
95	0xbe38d883	-0.18051343
96	0xbe3a1a08	-0.18173993
97	0x3e3f6dcb	0.18694226
98	0xbddccde5	-0.10781459
99	0x3e22391a	0.15842095
100	0x3e1f69f5	0.15567763
101	0xbdf81002	-0.12112428
102	0x3d3fb4f1	0.04680342
103	0xbe10412d	-0.14087363
104	0xbdfdab7e	-0.12386225
105	0xbe357743	-0.17721276
106	0x3dfa9009	0.12234504
107	0x3e14e9a9	0.1454226
108	0xbe3f1b7e	-0.18662831
109	0x3dc1ae36	0.09457056
110	0x3e12fc52	0.14354065
111	0x3c6c2586	0.014413243
112	0x3d3f53e2	0.046710856
113	0x3dfe60ab	0.12420782
114	0xbe3de3ce	-0.18543932
115	0xbe0a5556	-0.13509116
116	0x3d1b4e73	0.037916612
117	0xbdb34342	-0.08753063
118	0x3e2fdbb5	0.17173655
119	0xbd87ec2c	-0.06636843
120	0x3e198119	0.14990653
121	0x3aa13b00	0.0012300909
122	0xbe1a05dc	-0.15041298
123	0xbdfc3509	-0.12314803
124	0xbdf1c742	-0.118055835
125	0xbc8f7938	-0.017513856
126	0x3dca2a3a	0.09871335
127	0xbd89618a	-0.06708057
128	0xbe2ed059	-0.17071666
129	0x3db4965e	0.08817743
130	0xbd74dfbc	-0.059783682
131	0xbe0f9568	-0.14021838
132	0xbe18be30	-0.14916301
133	0x3e53af2d	0.20672293
134	0x3e040c3f	0.12895297
135	0x3dab93f6	0.08377831
136	0xbe28d0f9	-0.16485967
137	0x3dfa1fea	0.122131184
138	0x3e093599	0.13399352
139	0x3de316fa	0.11088367
140	0xbd77c0ac	-0.06048648
141	0x3cfbebb0	0.030752033
142	0x3b0e2440	0.0021689087
143	0x3c781370	0.015141353
144	0xbe1279e0	-0.14304304
145	0x3e2cd7eb	0.16879241
146	0xbe1508e9	-0.1455418
147	0x3e347463	0.17622523
148	0xbe48aa43	-0.195962
149	0xbe4d576b	-0.20052879
150	0xbd537934	-0.05162926
151	0xbaa99180	-0.0012937039
152	0xbe0ee2d3	-0.13953714
153	0x3da2ca82	0.079487815
154	0xbdd664b8	-0.10468429
155	0xbe4e6050	-0.20153928
156	0xbdd53686	-0.1041079
157	0x3d3fbd84	0.046811596
158	0x3e35195b	0.17685454
159	0xbe2e218c	-0.17004985
160	0xbe32be58	-0.17455423
161	0xbe37267b	-0.17885773
162	0x3de35893	0.111008786
163	0x3dc68853	0.096939705
164	0xbd32bf0d	-0.04363923
165	0x3d94702f	0.0724796
166	0xbe23b703	-0.15987782
167	0x3cdf4c43	0.027258044
168	0x3e3b9959	0.18320216
169	0xbd80f39e	-0.06296466
170	0x3dd1735c	0.10227081
171	0x3dd29d60	0.10283923
172	0x3e24487b	0.16043274
173	0xbcd7af0a	-0.026328582
174	0x3d208558	0.039189667
175	0x3e2206a8	0.15822852
176	0xbe1c3f23	-0.1525846
177	0x3e43b38c	0.1911146
178	0xbde5b676	-0.11216442
179	0xbd157251	-0.036485974
180	0x3e3a892e	0.18216392
181	0x3e38bd57	0.18040977
182	0x3d8182ce	0.06323777
183	0x3dc0d06a	0.09414752
184	0xbd667d64	-0.056271926
185	0xbe48d8bd	-0.19613929
186	0xbdd2e462	-0.10297467
187	0xbe06a88f	-0.13150238
188	0x3d5ba99d	0.053628553
189	0x3dbf7723	0.093488954
190	0xbe023893	-0.12716894
191	0x3e0b05fe	0.13576505
192	0x3e0052f3	0.12531643
193	0xbca11296	-0.019662183
194	0xbd9a343a	-0.07529493
195	0xbdd6d484	-0.10489753
196	0xbdc42d70	-0.09578979
197	0x3d6d628a	0.057955302
198	0xbe0fbdb1	-0.14037205
199	0xbd81a487	-0.06330209
200	0xbd6f1413	-0.058368754
201	0x3c47c03f	0.012191831
202	0x3d21bc2c	0.039486095
203	0x3e0c6c86	0.13713273
204	0x3e1ae869	0.1512772
205	0xbd332f16	-0.043746077
206	0x3e099874	0.13437063
207	0x3dcf4cae	0.10122047
208	0xbd4cf644	-0.050039545
209	0x3e043387	0.12910281
210	0xbe3006d0	-0.17190099
211	0x3e443041	0.19159032
212	0xbdca2baa	-0.098716095
213	0xbd99d280	-0.07510853
214	0xbd5078b5	-0.050896365
215	0xbd991a63	-0.07475736
216	0xbe0c0311	-0.13673045
217	0xbdd7adef	-0.10531222
218	0xbe3480d4	-0.17627269
219	0xbd887751	-0.06663383
220	0xbe45087c	-0.19241518
221	0xbccad9ae	-0.024762
222	0xbc9241d3	-0.017853653
223	0x3de8299c	0.11336061
224	0x3dd2a767	0.10285836
225	0xbd2fd18f	-0.04292446
226	0xbe20d441	-0.15705968
227	0x3e362a6b	0.17789619
228	0xbe2562a1	-0.16150905
229	0xbd6d6f16	-0.057967268
230	0x3de4e63c	0.11176726
231	0xbd0c48e8	-0.034249216
232	0xbdd8dc5c	-0.10588905
233	0xbe1d6008	-0.15368664
234	0x3c997a0a	0.01873495
235	0x3df112ef	0.117711894
236	0x3ca93cf6	0.020658951
237	0xbdf0e163	-0.11761739
238	0xbe1e18b9	-0.15439118
239	0xbe491a10	-0.19638848
240	0x3dd02f96	0.10165326
241	0xbcb4bd38	-0.022062883
242	0xbe04ade6	-0.12956962
243	0x3d7fff8c	0.062499568
244	0x3e11c567	0.1423546
245	0x3be0c7a0	0.0068597347
246	0xbe2ed759	-0.17074336
247	0x3e4b5a51	0.19858672
248	0xbd9359b4	-0.07194844
249	0xbe1bb5f0	-0.15206122
250	0x3de0f50a	0.109842375
251	0x3d4acc24	0.04951109
252	0xbe072cc6	-0.13200673
253	0x3dd53c02	0.10411836
254	0x3e2e83e5	0.17042501
255	0x3e0d6dab	0.13811366

sequential/dense_1/MatMul f4 [200, 100]
0	0x3a22ebbf	0.00062149385
1	0xbd660371	-0.056155626
2	0x3cfc2484	0.03077913
3	0x3df28ba2	0.11843039
4	0xbd9e91f4	-0.07742682
5	0x3deb0642	0.11475803
6	0xbd0b171c	-0.033957586
7	0x39c9275c	0.00038367033
8	0xbd2e7428	-0.042591244
9	0xbe1012bd	-0.14069648
10	0xbd84bc34	-0.064812094
11	0x3d6335bb	0.055471163
12	0xbd8dc9c3	-0.069232486
13	0xbccd571f	-0.025065957
14	0xbde16570	-0.11005676
15	0x3e04c1c0	0.12964535
16	0x3dea4d01	0.114404686
17	0xbc984ce0	-0.018591344
18	0x3d7262b1	0.05917615
19	0xbd981a91	-0.07426942
20	0x3da9add0	0.08285105
21	0x3d74440a	0.0596352
22	0xbd717360	-0.05894792
23	0x3c360f60	0.011112064
24	0x3d872fc6	0.06600909
25	0x3d0cfca4	0.034420624
26	0xbda47b4d	-0.0803133
27	0xbd580886	-0.052742504
28	0xbd45c3d7	-0.04828247
29	0x3dc50a37	0.09621089
30	0x3d306d6d	0.043073107
31	0xbe089067	-0.13336335
32	0x3dcffcf6	0.1015567
33	0x3dae5c86	0.08513741
34	0x3dc1fe2e	0.09472309
35	0xbd866ce2	-0.065637365
36	0x3cae000a	0.021240253
37	0xbd83f306	-0.064428374
38	0x3da1d470	0.07901847
39	0x3cab0dd9	0.020880627
40	0x3d2baee5	0.04191484
41	0xbdc2fa1a	-0.09520359
42	0x3d6f9f02	0.05850125
43	0xbdcc501a	-0.09976216
44	0x3d3de462	0.04636038
45	0x3cbb4c68	0.022863582
46	0xbc8240d0	-0.015900046
47	0xbdc708a9	-0.09718449
48	0x3dace760	0.08442569
49	0xbdb119f9	-0.08647532
50	0x3de66e1f	0.11251473
51	0xbdba03d6	-0.09082763
52	0x3dc4e1b9	0.09613366
53	0x3d2a6b4f	0.041606244
54	0xbdfd010f	-0.123537175
55	0xbe004580	-0.12526512
56	0x3dc823f7	0.09772485
57	0x3d84864d	0.06470928
58	0xbdf41820	-0.11918664
59	0xbd0b6ef2	-0.034041353
60	0xbd2b2cfd	-0.04179095
61	0x3dd94646	0.10609107
62	0x3d29a57e	0.04141759
63	0xbddf4c22	-0.10903193
64	0x3d00c9d8	0.031442493
65	0xbdb31400	-0.08744049
66	0xbd3e8d46	-0.046521448
67	0xbc6ea990	-0.014566794
68	0xbdd232e2	-0.102636114
69	0x3bb95fe1	0.0056571816
70	0x3d405a74	0.046961263
71	0x3db459dd	0.088062026
72	0xbd2c21be	-0.042024367
73	0x3cd93669	0.026515203
74	0x3d936857	0.071976356
75	0xbe03e10b	-0.12878816
76	0x3debf6be	0.11521672
77	0x3ceb6448	0.028734341
78	0xbe0303a9	-0.12794365
79	0x3db328a6	0.087479874
80	0xbda628ce	-0.081132516
81	0xbdcb153a	-0.09916158
82	0x3cac43c8	0.021028414
83	0x3d89cbda	0.06728335
84	0x3d9941ca	0.074832514
85	0xbe0fbca2	-0.14036801
86	0xbcccdd9d	-0.025008017
87	0x3da7887e	0.08180331
88	0x3d9b491a	0.075823024
89	0x3e02492d	0.12723227
90	0xbc61e850	-0.013788298
91	0xbde7cfc8	-0.11318928
92	0x3b4d1484	0.0031292746
93	0x3da1d29c	0.07901499
94	0x3dd2b336	0.10288088
95	0x3e07d301	0.13264085
96	0x3bee9700	0.007281184
97	0x3d437588	0.04771951
98	0x3d882fcc	0.066497415
99	0xbe129a8a	-0.14316764
100	0x3d7e684b	0.06211118
101	0x3b14e199	0.0022717474
102	0x3e0882ab	0.13331096
103	0xbd8461a2	-0.064639345
104	0xbe0fb894	-0.14035255
105	0xbc644773	-0.01393305
106	0xbcfe77c4	-0.031062968
107	0x3d03590f	0.032067355
108	0xbd976018	-0.07391375
109	0x3e0bab23	0.13639502
110	0x3d4f0108	0.050538093
111	0x3d828fec	0.06375107
112	0x3d80e35e	0.06293367
113	0x3d2040f2	0.039124437
114	0x3df206ae	0.1181768
115	0xbda15726	-0.0787795
116	0x3da9093f	0.08253717
117	0x3c95cd50	0.018286377
118	0x3da8cde2	0.08242394
119	0x3cba2a3a	0.022725213
120	0xbbefd9dc	-0.007319672
121	0x3c102ba7	0.00879947
122	0xbdbd5f3e	-0.09246682
123	0xbd4a7436	-0.049427234
124	0x3d39277c	0.04520367
125	0xbdd323f6	-0.103095934
126	0x3d652729	0.05594555
127	0xbdd4d3df	-0.10391974
128	0xbdea2272	-0.11432351
129	0xbdc6ae22	-0.09701182
130	0xbdaa8102	-0.083253875
131	0x3d210514	0.039311484
132	0xbddf1d59	-0.108942695
133	0xbdc73752	-0.097273484
134	0xbe0f6d16	-0.14006457
135	0x3e06bdd1	0.13158347
136	0xbced4de8	-0.028967813
137	0xbd464d80	-0.048413754
138	0x3e0c20ef	0.13684438
139	0xbd7047f8	-0.058662385
140	0x3dad0844	0.08448842
141	0x3d3357ec	0.04378502
142	0x3c11fb22	0.008909972
143	0xbce6af60	-0.028159797
144	0x3b6a91c0	0.003579244
145	0xbd226ae8	-0.039652735
146	0xbdd639ca	-0.10460241
147	0x3daf57b5	0.08561651
148	0xbddd2938	-0.107988775
149	0xbc0df91c	-0.008665349
150	0xbe03bc42	-0.12864783
151	0x3cbc5ad7	0.022992535
152	0x3ddfe5c8	0.10932499
153	0xbddabf70	-0.10681045
154	0x3cce28c0	0.025165915
155	0x3d62bf90	0.05535847
156	0x3e0e24b6	0.13881192
157	0x3d9fe50e	0.078073606
158	0x3c91a870	0.017780513
159	0x3cdca099	0.026932048
160	0xbdb5f158	-0.08883923
161	0xbd3649e8	-0.044504076
162	0x3b604520	0.003422089
163	0x3d991a63	0.07475736
164	0xbcdc24d8	-0.026873037
165	0x3dbfb446	0.09360556
166	0xbd9dfe42	-0.077145115
167	0xbc01ef90	-0.007930651
168	0xbd9bf7f7	-0.07615655
169	0x3e02fbef	0.12791418
170	0x3be96640	0.007122785
171	0xbe07407c	-0.13208193
172	0x3d396ac8	0.04526785
173	0x3dff9ba8	0.12480861
174	0x3dca2166	0.098696515
175	0x3db32df2	0.08748998
176	0xbc8aa594	-0.016924657
177	0x3d6ebcbc	0.05828546
178	0xbdc42a2e	-0.09578358
179	0x3d90cca4	0.07070282
180	0xbd7b80f0	-0.06140226
181	0x3df63728	0.12022239
182	0xbe028bde	-0.12748668
183	0xbe0a27c3	-0.1349173
184	0x3d001ae0	0.03127563
185	0x3da015af	0.07816636
186	0xbd53300c	-0.051559493
187	0xbdca1481	-0.09867192
188	0xbb946d20	-0.0045296103
189	0xbcd8ba52	-0.026456032
190	0xbd43c432	-0.04779453
191	0x3dc9127e	0.0981798
192	0xbd8ad948	-0.06779724
193	0x3e0f1e93	0.13976507
194	0x3db449ed	0.08803163
195	0xbdaf408e	-0.08557235
196	0x3d0d2008	0.034454376
197	0xbd5e1ec1	-0.054228548
198	0xbe0ef114	-0.13959152
199	0x3de9e3e0	0.11420417
200	0xbdc61c87	-0.0967341
201	0x3e0ca974	0.13736516
202	0x3e104972	0.14090517
203	0x3d4b61a8	0.04965368
204	0xbdadf2bd	-0.08493564
205	0xbaca7221	-0.001544539
206	0xbe0175d9	-0.12642612
207	0xbe0fb7f7	-0.14035021
208	0x3da6ab63	0.08138158
209	0xbdbf2586	-0.09333329
210	0xbdafee7c	-0.08590409
211	0xbb967b3f	-0.004592329
212	0x3db66fba	0.08908029
213	0x3ca23b06	0.019803535
214	0xbdaf6e70	-0.08565986
215	0x393fdaa9	0.00018296637
216	0xbd8b373a	-0.06797643
217	0xbdc0310f	-0.09384357
218	0x3d94e7c4	0.07270768
219	0xbd915c70	-0.07097709
220	0xbdbf5a8e	-0.09343444
221	0xbdb3a064	-0.087708265
222	0xbdbf944b	-0.093544565
223	0xbdc84038	-0.09777874
224	0x3e007fd1	0.12548758
225	0xbe01c1cf	-0.12671588
226	0x3deac708	0.114637434
227	0x3d78064c	0.06055288
228	0xbe0f15a7	-0.13973103
229	0xbda37281	-0.07980824
230	0xbd8ff69b	-0.07029458
231	0x3e12a15e	0.14319369
232	0xbd4e228b	-0.05032591
233	0xbb493e00	-0.003070712
234	0xbdd35f25	-0.10320882
235	0xbca3c47f	-0.019991158
236	0xbdb3e923	-0.08784702
237	0x3ba5e9e0	0.0050632805
238	0x3dcec22e	0.100956306
239	0xbdc68e61	-0.09695125
240	0x3e0e7378	0.13911235
241	0xbdfd70d1	-0.12375034
242	0x3d8fd339	0.070227094
243	0xbd3972d6	-0.04527553
244	0x3d1bba94	0.03801973
245	0xbd919ee7	-0.07110386
246	0xbda44f19	-0.08022899
247	0x3da9795a	0.08275099
248	0xbda329a6	-0.07966928
249	0xbdac0fa3	-0.0840142
250	0x3c9b0618	0.018923804
251	0xbda3d7e1	-0.0800016
252	0xbdefec5c	-0.11715004
253	0xbdaa9226	-0.08328657
254	0xbdac248a	-0.08405407
255	0x3ccf02e8	0.02526994

sequential/dense_2/MatMul f4 [100, 200]
0	0x3c6e4019	0.014541649
1	0xbdae239c	-0.08502886
2	0xbb9a41ab	-0.0047075353
3	0xbde4133b	-0.111364804
4	0x3dc3a054	0.095520645
5	0xbdd33976	-0.10313694
6	0x3df422b6	0.11920683
7	0xbd533622	-0.051565297
8	0x3de2310c	0.11044511
9	0xbd51babc	-0.051203474
10	0x3e046ae8	0.12931406
11	0x3db46212	0.08807768
12	0xbda6c9c3	-0.08143952
13	0x3ded6eae	0.11593376
14	0xbdff4d8d	-0.124659635
15	0x3d586904	0.052834526
16	0x3cc40880	0.023929834
17	0xbe128b7c	-0.14311022
18	0xbd4d30b4	-0.050095275
19	0x3d811aef	0.06303965
20	0x3b78808c	0.0037918417
21	0xbdf5ea2b	-0.120075546
22	0x3c80b053	0.015709078
23	0xbca89bb4	-0.020582058
24	0x3d396d7a	0.04527042
25	0x3dada754	0.08479181
26	0x3d374dc6	0.044751905
27	0x3dddd07a	0.108307794
28	0xbbbe60fc	-0.0058099013
29	0xbd9a6078	-0.07537931
30	0xbd9239e8	-0.07139951
31	0x3d95ed50	0.073206544
32	0x3c7d08a0	0.015443951
33	0x3d1b4109	0.03790382
34	0x3bafd0ee	0.0053654825
35	0x3e053805	0.13009651
36	0xbdbf5e85	-0.093442
37	0xbd8cca8e	-0.06874572
38	0x3e091b28	0.13389266
39	0x3e0c0051	0.13671996
40	0x3de7c282	0.11316396
41	0x3d08acf9	0.033368085
42	0x3d9d3da0	0.0767777
43	0xbd97899d	-0.073992945
44	0x3d360115	0.044434626
45	0xbe0b02c7	-0.13575278
46	0xbd4691b0	-0.048478782
47	0x3d634ec2	0.05549503
48	0x3d3e1dcd	0.04641514
49	0xbdba1913	-0.09086814
50	0xbd813a9a	-0.063100055
51	0xbdeccc56	-0.115624115
52	0xbdb381dc	-0.08765003
53	0xbdceeec4	-0.10104135
54	0xbe004fd8	-0.12530458
55	0xbc97410e	-0.018463638
56	0x3d92ee81	0.07174397
57	0xbdc6549f	-0.09684109
58	0xbcb45354	-0.02201239
59	0xbd07bb1b	-0.033137422
60	0x3dd74dda	0.10512896
61	0xbd8cb42f	-0.06870305
62	0xbd6a66c4	-0.05722691
63	0x3d79714f	0.060899075
64	0x3c05cfec	0.008167248
65	0x3cc2f278	0.023797259
66	0x3d490aae	0.04908245
67	0x3d67525c	0.05647503
68	0x3e0353f1	0.1282499
69	0xbd8d0cb9	-0.06887192
70	0xbcadac4b	-0.02120032
71	0xbd969ab4	-0.07353726
72	0xbbf730a2	-0.0075436393
73	0xbdeeb470	-0.116555095
74	0xbb151349	-0.002274709
75	0x3d83c012	0.06433119
76	0x3c85225f	0.016251741
77	0xbc8c7665	-0.017146299
78	0x3d9d25bf	0.07673215
79	0xbd8386b9	-0.06422181
80	0x3e073b58	0.13206232
81	0x3ce2ebce	0.027700331
82	0x3d97c40d	0.074104406
83	0xbe0c7b3f	-0.1371889
84	0xbc4fea29	-0.0126901055
85	0x3cb948ff	0.022617815
86	0xbe131dd9	-0.14366855
87	0xbc4392ec	-0.011936884
88	0x3db31767	0.08744698
89	0x3dba6fff	0.09103393
90	0xbc03ad2f	-0.008036896
91	0x3de5c6d7	0.11219566
92	0x3e0a0495	0.1347831
93	0x3d2efa5e	0.042719238
94	0xbde5b3e0	-0.11215949
95	0x3dc4cc2a	0.09609254
96	0x3d6ed2c9	0.05830649
97	0x3e05ced6	0.13067183
98	0x3c39866c	0.011323553
99	0xbd1de1ef	-0.038545545
100	0xbda0eb44	-0.07857373
101	0x3c20a210	0.009804264
102	0xbe147987	-0.14499484
103	0x3e093365	0.13398512
104	0xbbfd18b5	-0.0077238926
105	0xbd2b7c24	-0.041866437
106	0xbcadc020	-0.021209776
107	0xbd8b1d0f	-0.06792652
108	0xbde8288d	-0.113358594
109	0xbda10d78	-0.07863897
110	0x3de79ded	0.11309419
111	0xb950ecf4	-0.00019924698
112	0xbded77c2	-0.115951076
113	0xbde9b352	-0.11411156
114	0xbd91f6aa	-0.071271256
115	0xbde25433	-0.11051216
116	0xbda397f0	-0.07987964
117	0x3d1e765e	0.038687102
118	0x3dc3973d	0.09550331
119	0x3dc3d349	0.09561784
120	0xbde43533	-0.111429594
121	0xbdf093d3	-0.11746945
122	0xbd23606f	-0.039886888
123	0xbddfc11a	-0.10925503
124	0xbccd20c0	-0.02504003
125	0x3d8b9c82	0.06816961
126	0xbe02e526	-0.12782726
127	0x3dc39a1c	0.095508784
128	0x3df97790	0.12181008
129	0x3dc8a645	0.097973384
130	0xbdf7b2c6	-0.12094645
131	0x3e07a0cf	0.13244937
132	0x3e073b8d	0.1320631
133	0xbbbcf8e0	-0.005766973
134	0xbd7a346c	-0.06108515
135	0x3d973d2b	0.07384714
136	0x3d06b8d1	0.0328911
137	0xbd3ce6c9	-0.04611853
138	0x3da7f5fb	0.08201214
139	0x3d9e1dd4	0.07720533
140	0x3dc2fade	0.09520505
141	0xbd48eda8	-0.04905477
142	0xbcad5f33	-0.021163559
143	0xbe14345c	-0.14473099
144	0x3d9b2ecc	0.07577285
145	0x3d4ea90f	0.050454196
146	0x3dc7d85a	0.09758063
147	0xbd5ea754	-0.054358795
148	0x3d3e5339	0.046466086
149	0x3d9b8586	0.07593827
150	0xbd192afc	-0.03739451
151	0xbe04f8e3	-0.12985568
152	0x3de3b8b2	0.11119212
153	0xbdd4f259	-0.10397787
154	0xbd91a037	-0.07110637
155	0x3d711af0	0.05886358
156	0x3e0107e5	0.12600668
157	0xbd948686	-0.07252221
158	0x3d693fb5	0.05694552
159	0x3cba285d	0.022724325
160	0x3de75292	0.11295046
161	0xbd2742a1	-0.040835027
162	0x3d1ae9fb	0.037820797
163	0xbc29a0a6	-0.010353243
164	0xbda4a0cd	-0.08038483
165	0xbe00d252	-0.12580231
166	0xbc702d38	-0.0146592185
167	0xbd1406f4	-0.036139444
168	0x3d400e43	0.0468886
169	0x3db9ac09	0.09066016
170	0xbddb1e5d	-0.10699151
171	0xbd8be14e	-0.06830083
172	0xbe010dda	-0.1260294
173	0xbdfe6d5c	-0.124232024
174	0x3c60683a	0.013696725
175	0x3dfb49dd	0.12269948
176	0x3d4fe79a	0.05075798
177	0x3d1d2754	0.038367584
178	0xbcf5d0d2	-0.0300068
179	0x3d823d66	0.06359367
180	0xbd996a40	-0.07490969
181	0xbdd5610b	-0.104189
182	0xbe07b8bd	-0.13254066
183	0x3e029a8d	0.12754269
184	0x3cc037fc	0.023464195
185	0x3ce4b330	0.027917475
186	0xbdc5bdf3	-0.096553706
187	0x3e06e3ed	0.13172884
188	0x3c769645	0.0150504755
189	0x3d8b2f40	0.067961216
190	0x3dbe7051	0.092987664
191	0xbe09f9b6	-0.13474163
192	0x3cbf8167	0.023377134
193	0x3ddce9c1	0.107867725
194	0xbdb1fc98	-0.086907566
195	0xbd79e5eb	-0.061010282
196	0x3cfc2df3	0.030783629
197	0x3d3f86f4	0.04675956
198	0x3d8b50c0	0.06802511
199	0x3df678ae	0.120347366
200	0x3c54f1f8	0.012997143
201	0xbdbba2a6	-0.09161882
202	0x3d5a4e17	0.05329713
203	0x3d27360b	0.040823024
204	0x3d9f4707	0.07777219
205	0x3d87ce4e	0.06631146
206	0xbdfc860a	-0.123302534
207	0x3c038130	0.008026406
208	0xbd7f8a09	-0.0623875
209	0xbd91eb16	-0.07124917
210	0x3c4a55f9	0.012349599
211	0xbd5d107e	-0.053970806
212	0xbdaf9061	-0.0857246
213	0xbde7984a	-0.11308344
214	0x3c439f4e	0.011939837
215	0xbad56e82	-0.0016283544
216	0x3e053679	0.13009061
217	0x3da33a92	0.07970156
218	0x3d8e9b26	0.06963186
219	0xbdcd6f3e	-0.100309834
220	0xbd71c8b5	-0.0590293
221	0xbe034260	-0.12818289
222	0x3dbffb7a	0.09374137
223	0xbdac182a	-0.084030464
224	0x3d240038	0.04003927
225	0xbd896dfb	-0.0671043
226	0xbc90c57d	-0.017672295
227	0xbcc1c123	-0.023651665
228	0x3d974d52	0.073877946
229	0xbe0f35b9	-0.13985337
230	0x3e1958c3	0.14975266
231	0x3e0815bb	0.1328954
232	0x3d049539	0.032368872
233	0xbd6f899e	-0.05848085
234	0xbc0a1063	-0.008426758
235	0x3de12f10	0.109953046
236	0xbd4c4235	-0.049867827
237	0xbd8d7781	-0.06907559
238	0x3d0eed25	0.034894127
239	0x3de92cbe	0.11385487
240	0xbddf1080	-0.10891819
241	0xbd55afe3	-0.05216969
242	0x3de5d559	0.112223335
243	0x3da40e6d	0.08010564
244	0x3e14eca6	0.14543399
245	0xbdc323ea	-0.095283344
246	0xbdcd2b79	-0.100180574
247	0xbbdcacb7	-0.0067344564
248	0xbd7e10da	-0.06202779
249	0x3de15fcf	0.11004602
250	0x3dd7f784	0.10545257
251	0xbd8bdbb7	-0.06829017
252	0xbcbe8987	-0.023258938
253	0xbd4913c0	-0.0490911
254	0x3d6c3197	0.05766448
255	0xbcb989a6	-0.022648644

sequential/dense_3/MatMul f4 [2, 100]
0	0xbe33c960	-0.17557287
1	0x3e682ff5	0.22674544
2	0x3dbbea53	0.09175553
3	0x3e3a3df0	0.1818769
4	0xbc9764cd	-0.018480683
5	0x3e2e99fb	0.17050926
6	0xbe6542d7	-0.22388779
7	0x3e32c338	0.17457283
8	0xbe4be88e	-0.19912931
9	0xbdb43ffe	-0.08801268
10	0xbe4dbb70	-0.20091033
11	0xbd865aa8	-0.0656026
12	0xbe33b385	-0.1754895
13	0xbe3177f9	-0.17330922
14	0x3d76b60c	0.060232207
15	0xbd3b1cd5	-0.045681793
16	0xbe0470b2	-0.12933615
17	0xbe26eac8	-0.163005
18	0x3d501da0	0.050809503
19	0x3dc86ec4	0.09786752
20	0x3e1ce2bd	0.15320869
21	0x3db70f3b	0.08938452
22	0x3e358ef8	0.1773032
23	0xbd619471	-0.055073205
24	0xbc72baf9	-0.014815086
25	0x3e56ea72	0.20987871
26	0x3d0e7a02	0.034784324
27	0xbddb754d	-0.10715733
28	0xbd09d93f	-0.033654448
29	0x3df541bf	0.11975431
30	0xbdd543cb	-0.10413321
31	0x3e508cfc	0.20366281
32	0x3e019c8e	0.12657377
33	0xbe3ba2f0	-0.18323874
34	0x3de8c476	0.11365597
35	0xbe37562a	-0.17903963
36	0x3d6df309	0.058093105
37	0x3dabcf10	0.083891034
38	0xbdb24346	-0.08704238
39	0x3dd02e8d	0.10165129
40	0xbe2c3704	-0.16817862
41	0xbe286758	-0.16445673
42	0xbd27694e	-0.04087191
43	0x3cc5acdc	0.024130277
44	0xbe1478e3	-0.1449924
45	0x3e5119a8	0.20419943
46	0xbda35d86	-0.079768226
47	0xbe300bf2	-0.17192057
48	0xbcf32595	-0.029681006
49	0xbd0cde9d	-0.034391988
50	0x3e2e4341	0.17017843
51	0x3ded48ae	0.11586128
52	0x3d27966a	0.04091493
53	0xbe0e5981	-0.1390133
54	0x3ca14074	0.019684054
55	0xbe3f9e81	-0.18712808
56	0x3c803e30	0.015654653
57	0x3e29f490	0.165972
58	0xbdf3226d	-0.118718006
59	0x3e32f86a	0.17477575
60	0x3de02e59	0.1094634
61	0xbe66ff39	-0.22558297
62	0xbdb37f44	-0.08764508
63	0x3c6d937c	0.014500495
64	0xbd66693c	-0.056252703
65	0xbd9b7c28	-0.0759204
66	0xbd84d243	-0.06485417
67	0x3e18f298	0.14936292
68	0xbe0c3579	-0.13692273
69	0xbd043f4f	-0.03228694
70	0x3e61aea6	0.2203928
71	0xbe10b3bd	-0.14131065
72	0xbe11786b	-0.14206092
73	0x3def84db	0.11695262
74	0xbe2f5390	-0.1712172
75	0xbe1de6d3	-0.15420084
76	0x3d69d5b1	0.057088558
77	0x3d85c1b0	0.065310836
78	0xbe3de085	-0.18542679
79	0xba169fa6	-0.00057458354
80	0x3e568d60	0.20952368
81	0xbe6d6a72	-0.23185137
82	0x3e7311a9	0.23737206
83	0x3df9c500	0.12195778
84	0xbdb286a3	-0.08717086
85	0xbd713631	-0.05888957
86	0x3e2f0201	0.17090608
87	0x3e1fb43e	0.155961
88	0x3dcb5096	0.0992748
89	0x3e4c75f4	0.1996687
90	0x3d9975d5	0.07493178
91	0x3a92b3a8	0.0011192458
92	0xbd9d1735	-0.07670442
93	0x3e22fd39	0.1591691
94	0xbce415b1	-0.027842375
95	0x3d9d81b6	0.07690756
96	0xbd587568	-0.052846342
97	0xbe2ab1c1	-0.1666937
98	0x3e4972bf	0.19672678
99	0x3e686416	0.2269443
100	0xbe1c61a9	-0.1527163
101	0xbd508442	-0.05090738
102	0x3b7fe25a	0.0039044828
103	0x3e1280cc	0.14306945
104	0x3d3ba8c6	0.04581525
105	0xbdb03484	-0.086037666
106	0x3d334dbb	0.0437753
107	0xbd5d9291	-0.054094855
108	0xbd8015bc	-0.062541455
109	0xbd32e114	-0.043671682
110	0x3c34a23a	0.011025006
111	0x3e0ae48a	0.13563743
112	0xbd1485be	-0.03626036
113	0x3e221332	0.15827635
114	0xbdddc434	-0.108284384
115	0xbe3c1847	-0.18368636
116	0xbde3d2f5	-0.11124221
117	0x3dde2939	0.10847706
118	0x3c740f60	0.014896244
119	0xbe01a756	-0.1266149
120	0x3ddecb1a	0.10878582
121	0x3e6ba6e4	0.23012882
122	0x3e1f6f2a	0.1556975
123	0x3db4f24f	0.08835279
124	0xbc7f02b9	-0.015564614
125	0xbe691c92	-0.22764805
126	0x3e707e79	0.23485745
127	0x3dc903eb	0.098152004
128	0x3d74ca3c	0.05976318
129	0x3da73c61	0.08165813
130	0xbd867b7a	-0.0656652
131	0xbde92fa1	-0.113860376
132	0x3e46503f	0.19366549
133	0xbd57c330	-0.05267638
134	0x3e5397db	0.20663397
135	0x3d367fd5	0.044555504
136	0xbd113add	-0.035456527
137	0xbe307413	-0.17231779
138	0xbd245bd4	-0.040126637
139	0x3d14059a	0.036138155
140	0x3e6487d6	0.22317442
141	0xbd9c4db6	-0.0763201
142	0xbd97b4b1	-0.07407511
143	0xbd3bbec5	-0.04583623
144	0xbcdfa96c	-0.027302466
145	0xbd19524d	-0.037432004
146	0x3ccaa7b4	0.02473817
147	0xbca7b96a	-0.020474155
148	0xbc7b882a	-0.015352288
149	0xbd5e7312	-0.05430896
150	0x3da054c6	0.07828669
151	0x3d9a70ce	0.07541047
152	0x3e404fb4	0.18780404
153	0x3e022aac	0.1271159
154	0x3da5b696	0.08091466
155	0xbe2c2c7b	-0.16813843
156	0xbde3425b	-0.11096641
157	0x3da4a690	0.08039582
158	0x3da79b47	0.08183914
159	0x3cb66e5a	0.022269417
160	0x3d4943b7	0.049136844
161	0xbd197c66	-0.03747215
162	0xbc826a10	-0.015919715
163	0xbe0773a6	-0.1322771
164	0x3df61d1c	0.12017271
165	0x3e0de163	0.1385551
166	0xbe63d30f	-0.22248481
167	0x3d9df21f	0.077121966
168	0x3e68b59b	0.22725527
169	0x3df6d41d	0.12052176
170	0x3db23940	0.08702326
171	0xbe559f15	-0.20861466
172	0x3e2f5c57	0.17125069
173	0x3e01ac57	0.12663399
174	0x3e2d7563	0.1693931
175	0xbd6dbfe2	-0.05804432
176	0xbac400b9	-0.0014953829
177	0x3e17b04d	0.14813347
178	0xbcf17a17	-0.029477162
179	0x3cb3cb05	0.021947393
180	0x3e67ddba	0.22643176
181	0x3ddbdcd3	0.10735478
182	0xbd1b02fe	-0.03784465
183	0x3c85a5e5	0.016314456
184	0xbb83911e	-0.004015102
185	0x3dbbefd5	0.09176604
186	0x3de33a88	0.11095148
187	0xbe3e65cc	-0.1859352
188	0x3c8fe24d	0.017563963
189	0x3e413106	0.18866357
190	0xbd64a458	-0.055820793
191	0xbddebd89	-0.10875995
192	0x3da4ff13	0.08056464
193	0x3e039c2b	0.12852542
194	0x3dc9b158	0.09848279
195	0xbd97d01d	-0.07412741
196	0xbddc0990	-0.107440114
197	0x3d44b083	0.048019897
198	0xbe7242fc	-0.23658365
199	0xbd14b492	-0.036305018
